flask-backend/my_model_weights.pt (torch, 2157 bytes, 1 tensors)

conv.weight f4 [1, 3, 3, 3]
0	0xbc761d00	-0.015021563
1	0xbdef0fb2	-0.116729155
2	0xbdc0d36d	-0.09415326
3	0xbe153ea0	-0.14574671
4	0x3e2fad07	0.17155848
5	0xbd84d0cc	-0.06485137
6	0x3d257464	0.040394202
7	0xbe34e005	-0.17663582
8	0x3de207b6	0.11036627
9	0xbd8b681d	-0.068069674
10	0x3d35cf50	0.04438716
11	0xbe12ff52	-0.1435521
12	0xbd375a88	-0.04476407
13	0x3dfd0e4e	0.12356244
14	0x3d37bc28	0.044857174
15	0x3e11a05d	0.1422133
16	0x3e28f00b	0.16497819
17	0x3dc8d4e6	0.09806232
18	0x3dae8f82	0.08523466
19	0x3c588530	0.013215348
20	0x3e3df429	0.18550171
21	0xbd6e8454	-0.058231667
22	0x3b3c6700	0.0028747916
23	0xbe07e619	-0.13271369
24	0xbdfd288b	-0.123612486
25	0xbd9a1868	-0.075241864
26	0x3e06255b	0.13100187
